black_hole_dqn.pth (torch, 102094 bytes, 6 tensors)

fc1.weight f4 [128, 43]
00000000: 25ec 963d ad0a 193e d362 3d3e d73c bfbd
00000010: 563a 87bd 8923 00be 2b57 443d ec6a 22bd
00000020: 4576 223e 361a f8bd 49e0 383d 8d14 963d
00000030: 2ba1 463d 9676 57be eaf9 7bba 1f4e 8f3c
00000040: b6f4 183e 3069 87bd aecb d13d 81b1 863c
00000050: 8923 2b3e bd14 46bd d4f0 debc 67b5 cbbd
00000060: 8ec2 94bc 3c67 463e 2bb8 be3d 2cdf 1abd
00000070: 16cf 423d 5703 3c3d 337b 063c ab3e d4bc
00000080: a500 9e3d 45a0 86bc 6463 9a3b 7006 35bd
00000090: cf0d 543e e2da ee3d ae4a da3d f5f4 8bbc
000000a0: 2ebd 2e3e c3b6 85bd 02d6 723e 9249 17be
000000b0: 362f e4bc 3a23 063e b2f4 c63d cfdf bfbd
000000c0: 5a92 83ba 2976 9cbb aa41 85bc 3dde 8cbc
000000d0: 0e6e d43d d4d0 a03d d0f4 4b3d a7e6 a53d
000000e0: 12c6 f3bd 577e 683d d28d e7bc 2bfb 0b3e
000000f0: 2b4f 07be efeb 0239 2917 b73c 0e3b f1bc
00000100: f01b 29bd 1fba d0bb d40f d03d 2c4e 83bd
00000110: 8f31 b13c 537f 32be d2ab 903d 68aa 8d3d
00000120: 7d1b 703d eec7 3d3b c5ca 133d 903d fbbd
00000130: 9f1a 693e 0a14 e6bd 141b be3d 872e 0ebe
00000140: 2075 1bbe 3598 cf3d 9571 a53d 6fb5 8bbd
00000150: 44c9 d4bd b7af cf3d 48ab d33d 8df3 223e
00000160: 5c54 c03d 1844 38bd 2476 cd3d 8527 21bd
00000170: 0064 fbbd 8f60 9d3d a792 a43c c60c ca3d
00000180: 40dd 61be b5c3 77be f20c 09be f3b2 ed3d
00000190: 6bc4 0b3d 6b9a ac3d 211f d93d b478 eb3d
000001a0: a132 83bd e499 463e 15cf 673d 8af4 323c
000001b0: 95f2 2bbd b5fc 4a3d 45a3 ffbd 0f61 12be
000001c0: 78f8 9f3d 92c8 11bd 242f ba3c 8442 893d
000001d0: ee2f 0abe db44 c93d 958f 9abd 3122 0fbe
000001e0: 13ad 573d c780 d3bd 2577 aabc 0adf 113e
000001f0: dcad ad3a dbba 00be e854 013e 0b0f 56bd
00000200: f8d9 edbd 97f0 b3bb 8b94 fa3d 50bd 243d
00000210: f111 02bd 8192 493e bb0a f83a d1f9 273e
00000220: fa11 053e 44e0 a7bd 79a4 d3bd 6b75 eb3d
00000230: cc80 88bd 1b41 fa3d 365f 2e3d 2f68 21be
00000240: 714c 85bd f587 99bd 8961 60be d980 4abe
00000250: d5a6 023d cb0e 79bd acba 083d 3021 33bd
00000260: c92d e43d b7b3 c3bd 40a7 d83d 37cc a0bd
00000270: 6b3f bdbd b0bf 323e 8091 213e b65c 263e
00000280: fa1b e7bc 1829 a0bd fb0e a13c fcfb 3e3d
00000290: 7492 d93c d062 dfbd 70af 31bd 8294 1f3e
000002a0: f8f5 143e c229 413e 8d11 d83d 96b3 c63d
000002b0: 906a 24be 9f1f 3abb 6620 1d3e 3f23 3b3e
000002c0: 3505 d93d d377 66bd 5397 9fbc c786 a63d
000002d0: 72c9 963d d111 cdbd d5ad d83c 527c 8ebd
000002e0: cf89 06be e124 043e a3d6 2fbe 8745 273d
000002f0: 8306 9cbd b1b8 0cbe c238 14bd 0b49 4a3e
00000300: 9604 2fbe 8d77 a6bd 77c0 febc 0148 9fbc
00000310: aa9f 52bd 168b 4cbd 5f8e ff3d da0f 1cbc
00000320: 507e 443d 9a8b aabd 2261 bc3d 7acd 0c3e
00000330: d193 2f3e 9808 86bd 5532 21bc 65db febc
00000340: 5f7d 343d 614c d23b 8ddf 3b3e 970c 68bd
00000350: 8204 62be 2f67 d83d 1fa3 253e 9d36 3abe
00000360: d231 eabd 6fd6 e9bc 34ea 57bd 74f5 fdbd
00000370: 08b8 40bd 80fb 1bbe f464 80be 96e7 f1bd
00000380: e630 02bc 0755 10be c482 68be f4a8 48be
00000390: f5d2 9c3d 9f0d f9bd b017 683d c813 dcbd
000003a0: 53fd 93be 5cdb 27be 6f09 433d 35f1 9bbd
000003b0: 956c 15bb f13e d13c 9166 4fbe 747e 47b9
000003c0: 5500 293e 6e16 843d 1ed0 04be 4c72 d0bd
000003d0: c2aa f7bd b9c5 08be fb98 413c b75f b4bd
000003e0: cd4a 3abe aaf3 9bbc ee37 79be 3721 8dbd
000003f0: a1c7 a0bd 233e b3bd 9880 bbbd 02fa 893b
0.0736926 0.14945479 0.1849473 -0.09337776 -0.066029236 -0.12513556 0.047934692 -0.03965275
0.15865429 -0.12114374 0.04513577 0.073281385 0.048493546 -0.2104133 -0.000961213 0.017493306
0.149371 -0.0661186 0.10243927 0.016442062 0.16712774 -0.04835962 -0.027214445 -0.09946709
-0.018159177 0.19375318 0.09312471 -0.03781049 0.047560774 0.045901623 0.008208084 -0.025908789
0.07714967 -0.016433844 0.0047115553 -0.044195592 0.20708393 0.11662842 0.10658775 -0.017084578
0.17064354 -0.06529 0.2371445 -0.14774159 -0.027854543 0.13099375 0.09714641 -0.0936886
-0.0010038123 -0.004774828 -0.016266663 -0.017195815 0.10372554 0.07852331 0.04979402 0.08100634
-0.11903013 0.056761112 -0.028265867 0.13670032 -0.13213794 0.00012485658 0.02234991 -0.029447105
-0.04128641 -0.0063698436 0.10159269 -0.064113945 0.021630077 -0.17431383 0.07064022 0.06917268
0.058619965 0.0028958279 0.036082048 -0.122676015 0.22764061 -0.11234291 0.092825085 -0.13884936
-0.15181398 0.10136453 0.08078305 -0.06821715 -0.10389951 0.10140937 0.10335404 0.1591322
0.0939109 -0.044986814 0.10032299 -0.03934433 -0.12274933 0.07684433 0.02008946 0.098657176
-0.22057056 -0.2419575 -0.13383844 0.116063975 0.034122866 0.084278904 0.106016405 0.11497632
-0.06406141 0.19394642 0.056593973 0.0109225605 -0.04197939 0.049557406 -0.12482313 -0.14294837
0.078110635 -0.03559167 0.022727557 0.0670214 -0.13494846 0.09827586 -0.07546917 -0.13977887
0.05265529 -0.10327297 -0.020808766 0.14245239 0.0013250667 -0.1257128 0.12630045 -0.05226044
-0.1161384 -0.005491327 0.122353636 0.040219605 -0.03175539 0.19684793 0.0018924096 0.16403891
0.12995139 -0.08197072 -0.10334105 0.11497005 -0.06665191 0.12219449 0.04257127 -0.15762399
-0.06508721 -0.07496635 -0.21912207 -0.19775714 0.031897385 -0.060805123 0.03338115 -0.043732822
0.11141545 -0.09555762 0.105787754 -0.07851451 -0.09240612 0.17455935 0.1577816 0.16246304
-0.028211582 -0.07820338 0.019660464 0.04662703 0.026559092 -0.10907519 -0.0433802 0.15583995
0.14546955 0.18863586 0.105502225 0.09702222 -0.16056275 -0.0028400195 0.1534439 0.18275164
0.10596696 -0.056266617 -0.019481337 0.081311755 0.073626414 -0.10013164 0.026450077 -0.06957306
-0.13138507 0.12904693 -0.17171721 0.04083779 -0.076184295 -0.13742329 -0.03618694 0.19754426
-0.17091593 -0.08128271 -0.031097634 -0.019443514 -0.0514218 -0.04993733 0.12478327 -0.009525264
0.047972023 -0.08327408 0.09198214 0.13750258 0.17146231 -0.06544608 -0.00983866 -0.031110475
0.044064876 0.0064177965 0.18346997 -0.05665263 -0.22072032 0.10566556 0.16175507 -0.18184896
-0.11435284 -0.028544633 -0.052713588 -0.12400332 -0.047050506 -0.15232658 -0.2507702 -0.1181175
-0.007946229 -0.14094935 -0.22706133 -0.195957 0.07657424 -0.12160801 0.056663215 -0.107459605
-0.2890421 -0.16392273 0.04761642 -0.07614366 -0.0022800316 0.025542708 -0.2025397 -0.00019025226
0.16504033 0.064495906 -0.12970015 -0.101780504 -0.12093116 -0.13356675 0.011816259 -0.08807319
-0.18192597 -0.019037087 -0.24337742 -0.06891101 -0.07850576 -0.08752086 -0.09155387 0.0042107115

fc1.bias f4 [128]
00000000: 1035 693e 8cc0 ba3d d5cb 20be 1af4 0e3e
00000010: 3b23 f03d a147 033f 5bae 4fbd 14b4 c8bd
00000020: b6eb a43e 9cca f5bd a760 08be 0eb3 fabd
00000030: 9788 c23c 46c2 023d 5e57 b13c df94 36be
00000040: 9eaf 50be fab2 023e bb69 76be a506 91bb
00000050: a916 c43e 3dad 203f 84ed 1ebe 2c7d c9bd
00000060: c7f4 4cbb 01a3 33bd 58e5 013d 013b 1cbd
00000070: 24ed 13be bc93 a1bd a7b1 5dbb 5cb6 01bd
00000080: 17ec 42be 7954 bb3e 68d3 c9bd b147 26be
00000090: 06b0 c03e cf5a 9f3d f6c2 563e 918e 4abc
000000a0: 3e35 813d 7ca3 f03c a3db 77be c165 093f
000000b0: 7490 293d da20 5ebc 5e6c 143e dd41 1abe
000000c0: 7cff a3bd 3c9e 9e3e 821e 57bd 35cb 6abe
000000d0: 190f bfbd 2ef7 09be a034 cd3e 35e4 edbd
000000e0: 475c 793d 7e7b 2cbd 2b8b 48be f90b 90be
000000f0: 82e3 9fbd 3a3c 4f3d 4f64 873e e135 6f3e
00000100: 3269 f33d ce42 60be 03cc 94bb 9e26 e8bd
00000110: 633c 373d b4ce 96be 2e80 92bd d018 81bd
00000120: 20e0 b5bd ab02 9ebd 2aec 71be 402c e5bc
00000130: 52fd 15be c34d 7e3e 8f03 a53e afdd a8bd
00000140: f294 af3e 26f6 8dbe d55f cb3c ecec 98be
00000150: dc35 bbbd c865 48be c169 24bd 6e5e 883e
00000160: c9a3 6a3e 0acb 5e3e 176e 793d ce3c ec3c
00000170: d2b9 753e eb01 bb3e 53e4 90be 692c e9bd
00000180: ab3e f23e a23f 5cbe e85f 1bbe f802 e0bd
00000190: 16b2 81be db70 663e 1ee1 85bd b469 70be
000001a0: a7c4 dd3d f29b 843e b00e e43c 527f 56bc
000001b0: 8442 19be fe6e 0fbe f954 47be c7d0 0fbe
000001c0: db74 c23e 9138 903d 007c 003f 5528 09be
000001d0: 48ee b93d 31ad b43e 6a30 9b3e c74c bfbc
000001e0: b85f debd 5817 b2bc b25c c4be bd03 b53e
000001f0: 2578 ec3c 130d 27be 7ff7 02be 9ff4 383d
0.22774148 0.09118757 -0.15702756 0.13960305 0.1172547 0.5128117 -0.050703388 -0.09799972
0.32211083 -0.12001535 -0.1331812 -0.12241183 0.023746772 0.031923555 0.021648105 -0.17830227
-0.20379493 0.12763587 -0.2406377 -0.004425841 0.38298538 0.6276434 -0.15520293 -0.09838328
-0.0031273828 -0.043856625 0.03171286 -0.038142208 -0.1444593 -0.07889506 -0.0033827813 -0.031668052
-0.19035374 0.36587885 -0.09854776 -0.16238286 0.37634295 0.07780992 0.20972809 -0.012363092
0.06308983 0.02937483 -0.24204879 0.5367089 0.041397527 -0.013557637 0.14494464 -0.15064187
-0.08007714 0.30980098 -0.05251933 -0.2292908 -0.093290515 -0.13473198 0.40079212 -0.11615793
0.06087902 -0.04210996 -0.19584338 -0.28134134 -0.078070655 0.050594546 0.26443717 0.23360397
0.11885299 -0.21900484 -0.0045409217 -0.11335491 0.044735324 -0.29454577 -0.071533546 -0.06303561
-0.08880639 -0.077153526 -0.23625246 -0.027975202 -0.14647415 0.24834351 0.32229277 -0.08245408
0.34293324 -0.2772686 0.02482597 -0.29868257 -0.09141132 -0.19570076 -0.040139917 0.26634544
0.22914042 0.21757141 0.060896005 0.028837588 0.23996666 0.365249 -0.28299198 -0.11385424
0.47313437 -0.21508649 -0.15173304 -0.10938066 -0.2533118 0.22503988 -0.06537078 -0.23477823
0.10828524 0.25900227 0.027839035 -0.013091879 -0.1496678 -0.14007184 -0.19466008 -0.14044486
0.3797978 0.07042039 0.5018921 -0.13394292 0.09078652 0.35288385 0.30310374 -0.02335204
-0.10858101 -0.021739647 -0.3835197 0.35354415 0.028865883 -0.16313581 -0.12789725 0.045155164

fc2.weight f4 [128, 128]
00000000: 6e5c 043e 9000 9b3d 63cb bdbb ffc7 863d
00000010: f17c 2cbd 3a54 6cbe 6206 7d3b f674 9e3c
00000020: 1661 eebc 2e0e 0a3d 30ca d73d 0765 7abc
00000030: cc4f 223d ce35 5d3d d4e4 033c af88 443e
00000040: 7fcf 583d 8ddd f7bc 703b a83d 7495 3c3d
00000050: 7b61 4f3c bb3f 43bd d31e 4d3e 16b8 733d
00000060: ffc3 673d 9ee1 a9bc 46af 1fbb 1e3e 90bd
00000070: 897b 923d e4dd 023e af2e d7bd 4c8a 153d
00000080: 9db0 fdba f3ea c83d b516 b5bc bd48 123e
00000090: 9485 8bbd c83e c63d 5201 08bc 13b5 0c3c
000000a0: 0fb7 98bc f62a c43b cb57 2fbc 10b5 75bd
000000b0: d755 9ebd 3f3c 04bc 13fb ffbb f67a f13c
000000c0: 1937 8b3d 8464 dfbd ed8c 9c3d b1ff 7b3d
000000d0: fecc 9abb 3283 53bc 3ee7 103e b0a2 983b
000000e0: 2e78 0d3a 9a6b cf3c 2f4b b83d fd4a 1d3e
000000f0: 4ff2 58bd c591 75bc a601 d7bc 04b3 8b3d
00000100: 1417 5c3d a88b b93c 6f80 273d f33d c4bc
00000110: 1360 e6bd 44e6 00be 7294 f0bc 3fe3 e43a
00000120: f0dc 0d3e c7d3 973d 55a0 86bd 07e2 a63d
00000130: 204f 4dbd 3429 683d 141a 9e3d 3449 4dbd
00000140: e51b 183d 02a3 3cbd 2d20 b13d 54eb babd
00000150: bf26 d43d eba4 a7bd f635 7f3c 6fae f0bc
00000160: 39cb ff3d 140e 98bc 89bb 863d e67b 1b3d
00000170: 5a6e a53d d81a c83b 69f0 cdbb 3535 f53d
00000180: 2e10 793d da5e a5bd 0d34 3d3d b7f2 df3d
00000190: 980e 053e e865 7bbd c73a 0b3e 4924 d93c
000001a0: 1366 3abd cc62 61bd 654b 9f3c f58c 323d
000001b0: 945f 8ebd aab7 1c3d 1bce 03bd 893f d7bd
000001c0: ebd1 df3d 8f6b 23bd 4f4c 13be a77c 31be
000001d0: 7d1a a83d 54e1 0cbd f349 243d 81c9 ba3d
000001e0: 79f8 833d 74a9 9a3d ac2b 093e da61 08be
000001f0: 2024 a6bd 2009 32be 8136 a73d 6a5c 8e3c
00000200: 4560 873d 6d44 a2bc 81ff c53c 2698 1fbd
00000210: b5df b03d 1648 c1bc 0bb0 833d fe9c 34be
00000220: 7f23 193d eff0 11bd d70e aabd 0ad9 043d
00000230: cfb4 cfbd 7731 8e3d e785 15bd 0ba4 f8bc
00000240: 06bb 613d 1f00 83bd de55 40bd 13b1 02bc
00000250: 9eaa c6bc 9720 1dbd 4f48 0a3d f56d 5dbd
00000260: eb11 dcbd ae10 b5bb e2f7 933d 1967 8cbc
00000270: 3969 f9bc 6c98 51bd fc95 363c eed9 a73d
00000280: 836d bd3d 3cd1 37bd 2ef7 9abc 8185 3e3c
00000290: 5e32 b23d fc33 c63d d05c a9bc 7af7 f13c
000002a0: ccfe 51be ff63 1abd 0fd5 97bd 269d 8f3d
000002b0: be08 323d bdaf f3bd f3c2 06be 3a93 b7bd
000002c0: 09ea e8ba 8f2c 5dbd 6b8d e9b8 65c6 d13d
000002d0: 382d 89bd 0f60 90bc ce8c 4abd 9f37 26bb
000002e0: 6c8b d63c 6256 523d fcfc 08bc da96 9b3d
000002f0: 2615 3f3d 2d13 67bd 51c7 b2bd 12e1 4ebc
00000300: 3772 9fbc f97f f63c 6c01 fe3b 7426 933d
00000310: 30a2 273d 5e27 7b3b 372f c4bd ce4c fdbd
00000320: 56ac acbd 2b72 f03d 124d 913d 7e9c c7bc
00000330: e9ba bdbb 6aeb b03b 4c69 e83d 402d c9bc
00000340: fed1 52bd 41a3 b13b fa03 c3bc d048 433d
00000350: 8358 893c 09fb e0bd 05f3 68bd 56b8 1abc
00000360: 2e76 43be ce19 b8bd 137c c0bd e5cb e2bb
00000370: 44e5 aebd 92ab 7d3d 79b8 0cbd 2f9a 50bd
00000380: f4aa 3fbe 6d07 c13d 1eea 47bd 4fae 5c3d
00000390: b671 92ba a27d 81bd e594 9dbc b42b ef3c
000003a0: 4226 f1ba 78be aebd b06e 15bd c791 dd3c
000003b0: cd25 42bd 8742 8abd f434 e33c 2469 06bd
000003c0: 4796 06bd 02c1 ecbd 119b 86bc 3b43 0e3d
000003d0: 8b91 d1bc 328a 2c3a a2be 01be 5581 0bbc
000003e0: f150 acbc 64ef 073c 361c 27bb f395 93bd
000003f0: a0c3 20bc 4c48 b3bc 004d 3abd 45e8 05bd
0.12925884 0.07568467 -0.005792068 0.06581115 -0.04211134 -0.23079005 0.003860854 0.01934288
-0.029099029 0.03370493 0.10536611 -0.015282876 0.03962688 0.05400639 0.008050162 0.19192766
0.05293226 -0.03025701 0.08214462 0.046040967 0.0126575185 -0.0476682 0.2003129 0.05950173
0.0565834 -0.020737465 -0.0024365946 -0.07043098 0.07152469 0.12779957 -0.10506951 0.036508843
-0.0019355003 0.09810438 -0.022105554 0.1428556 -0.068125874 0.09679943 -0.008301096 0.008588093
-0.018641977 0.0059865667 -0.010702084 -0.059987128 -0.077312164 -0.008071004 -0.007811913 0.029477578
0.067976184 -0.10907844 0.07644067 0.061523143 -0.004724144 -0.012909697 0.14150712 0.0046580657
0.00053966313 0.025319863 0.08998715 0.15360637 -0.05296546 -0.014988367 -0.026245903 0.06821254
0.053732947 0.022649601 0.04089397 -0.023955321 -0.112487935 -0.1258784 -0.02936766 0.0017462744
0.13853812 0.0741344 -0.0657355 0.0814858 -0.050124288 0.05667992 0.07719818 -0.05011864
0.037135977 -0.046053894 0.08648715 -0.091269165 0.10358953 -0.081857525 0.01557683 -0.029380051
0.124899335 -0.0185614 0.06578738 0.037959956 0.080776885 0.0061067156 -0.0062847626 0.11973039
0.060806446 -0.08074732 0.046192218 0.10934966 0.12993848 -0.061376482 0.1359664 0.02650656
-0.0455075 -0.05502586 0.01944513 0.04359146 -0.06951824 0.038261093 -0.03217898 -0.10510165
0.109287106 -0.039897498 -0.14384578 -0.17332707 0.08208177 -0.034394577 0.040109586 0.09120465
0.06443877 0.07551852 0.13395566 -0.13318577 -0.08112359 -0.17386293 0.08164693 0.01737805
0.06610159 -0.019808019 0.024169685 -0.03896346 0.08636419 -0.023593944 0.06430062 -0.17638013
0.037387367 -0.035630163 -0.08303612 0.032433547 -0.101419084 0.069430284 -0.036504652 -0.03035166
0.05511 -0.063965075 -0.04695689 -0.007976788 -0.024251278 -0.03836116 0.033760365 -0.05405994
-0.10745605 -0.00552567 0.07225014 -0.017139005 -0.030445682 -0.05117075 0.0111441575 0.08195864
0.09249403 -0.044877276 -0.018916693 0.0116285095 0.08701013 0.09677884 -0.02067414 0.029536951
-0.20507354 -0.03769302 -0.074136846 0.070123956 0.04346537 -0.11898754 -0.13160305 -0.08963628
-0.0017769943 -0.053997573 -0.00011136647 0.10242919 -0.06698078 -0.01762393 -0.049450688 -0.0025362743
0.026189528 0.051351912 -0.008361097 0.07597132 0.046651028 -0.05641477 -0.08729423 -0.012626903
-0.019463642 0.030090319 0.0077516343 0.07185069 0.04092616 0.0038323025 -0.09579318 -0.12368165
-0.08431308 0.11740526 0.07094778 -0.024366613 -0.0057901037 0.0053991573 0.11348209 -0.02455771
-0.051469795 0.0054210727 -0.023805607 0.04767686 0.016765838 -0.10985381 -0.056872386 -0.009443363
-0.1908805 -0.08989297 -0.09398665 -0.006921279 -0.08539823 0.0619312 -0.034355614 -0.05092829
-0.18717557 0.094252445 -0.048807256 0.05387717 -0.0011172805 -0.06322791 -0.019236038 0.029195644
-0.0018398243 -0.08532423 -0.036482513 0.027047051 -0.04739933 -0.0675097 0.027735211 -0.032815114
-0.03285816 -0.11560251 -0.016431363 0.034732085 -0.025582096 0.0006581872 -0.12670377 -0.008514722
-0.02103469 0.008296821 -0.0025498993 -0.07206335 -0.009812266 -0.02188506 -0.04548359 -0.032692213

fc2.bias f4 [128]
00000000: a026 893d e616 043c d681 80bb 54b7 f23d
00000010: a791 c63a 3927 5ebd 7784 433c e9d7 90bd
00000020: 7cfa 173a 9fa7 5ebd 3c31 95bc 0b86 ac3c
00000030: 550c 91bb 2639 f0bd e3ed 873c 89c2 823d
00000040: ed8f 37bd 7a1f 94bd 47d5 353e 20d2 e8bc
00000050: 1af0 b23d ce28 debd f325 273d 5847 9abc
00000060: 8b39 e5bd b681 c7bb 75b9 733d 65a8 553c
00000070: 7376 52bd 7ca2 ddbd 325b 73bd 334b de3d
00000080: dc42 7c3e c75b 05ba 1d1e b23c 94db 1f3e
00000090: d0e8 83bd 2948 303c 290b e23d 3e5f b4bd
000000a0: ff82 ddbd 5e33 dfbd 31ef 10bd 9335 8abd
000000b0: 1a31 cb3d d197 2cbc bdd9 a9bd cd00 023e
000000c0: e282 89bd 4326 6d3d 97a3 42bb c908 9e3d
000000d0: 75cb 1fbd 2719 dcba ecea d13d d741 e6bd
000000e0: 6838 ecbd 0850 2bbd 4d32 7d3c ad40 e53d
000000f0: 664f 09bc 3561 823e 359b e8bc 9602 363e
00000100: 0be3 b2bd 0082 44bd 9440 a63d 84ac c13d
00000110: 7a94 e6bc c441 383e fe16 003d 0975 f13c
00000120: 7b41 6cbc d7c2 2f3e b6b7 af3c fae1 8ebd
00000130: bd7c 563e ae03 bcbd 00d6 083d cdb0 583e
00000140: a1aa 1dbc 0758 cebd 1a91 c4bb 58f5 1b3e
00000150: 8e77 1abd 84e1 16bd 0d98 9039 143c 3dbc
00000160: 3f09 e1bd ff68 21bd 9b2a 02be 5c46 a03c
00000170: 36cc 673c a8d8 aabd ecb9 bdbd d3b3 e93c
00000180: 182e c9bc e940 aabd 775d 8cbd a5e8 e4bd
00000190: 17bd 43bd eab2 1a3d 00f5 abbc 5aca dfbd
000001a0: d21d 12bd 05f5 053e 4eb4 29bd f503 623e
000001b0: 0b00 f6bc 2e50 16bd 0f6c 91bd e255 01bd
000001c0: 8da0 95bb 65de d53d b26c 5e3e e8ae 3cbc
000001d0: 126f 49bc 0ba1 a7bd 4d4f 893d 7cd2 923d
000001e0: 123c 66bd e391 e7bd 322b 9a3d 7149 66bd
000001f0: 6516 853e 5de4 93bc 61d7 ab3d 1783 f1bd
0.0669682 0.0080621 -0.0039217276 0.11851373 0.0015149609 -0.054236624 0.011933438 -0.070724316
0.0005797518 -0.054359075 -0.018211953 0.02106001 -0.004426519 -0.1172965 0.016592925 0.06384761
-0.044814993 -0.07232566 0.1775714 -0.028420508 0.08737202 -0.108476266 0.040807676 -0.018832847
-0.11192616 -0.006088461 0.059503037 0.013040637 -0.051382493 -0.10822007 -0.059413143 0.10854187
0.2463488 -0.0005087223 0.021742875 0.15611106 -0.0644089 0.010759392 0.11037285 -0.088072285
-0.10816001 -0.108984694 -0.03538436 -0.067485 0.09921475 -0.010534243 -0.082934834 0.12695618
-0.06714417 0.057897817 -0.0029699558 0.077165194 -0.03901239 -0.0016792164 0.10249886 -0.11243027
-0.11534196 -0.04182437 0.015453887 0.111939766 -0.0083807465 0.25464788 -0.028394321 0.17774424
-0.08734711 -0.04797554 0.08117786 0.09456733 -0.028146971 0.17993838 0.031271927 0.029474752
-0.014419909 0.17164169 0.021449905 -0.06976695 0.20946021 -0.09180389 0.03340721 0.21161194
-0.009623201 -0.10075384 -0.0059987428 0.1523031 -0.037711672 -0.036836162 0.00027579107 -0.011549968
-0.10988092 -0.039406773 -0.12711565 0.0195648 0.014147809 -0.08342105 -0.092639774 0.02852813
-0.024558112 -0.08313162 -0.068537645 -0.11177186 -0.047787752 0.037768282 -0.020990849 -0.109272674
-0.03567297 0.13081749 -0.041431718 0.22071822 -0.030029317 -0.03669756 -0.07100689 -0.031576045
-0.0045662583 0.10442809 0.21721151 -0.01151631 -0.012294548 -0.081850134 0.067045785 0.07169053
-0.05620963 -0.113071226 0.0752777 -0.056222383 0.25993648 -0.018053228 0.0839069 -0.117925815

fc3.weight f4 [21, 128]
00000000: 9352 a33a f2ce 9fbd dd73 973c d4e4 293e
00000010: f392 483e d382 30bd 783f f13c f480 34be
00000020: 06e1 fb3d d748 02be 86cb c1bd 90c0 823d
00000030: eac4 bebd 27a7 10bd f952 0abe f247 723b
00000040: f207 513e afa1 203e 9a93 9139 fde7 20be
00000050: b2a7 fe3d da4b 25be 722d f2bd 73da e73d
00000060: 9629 753d 8975 71bc a246 053e 7a19 e73d
00000070: 97c1 c33d 15fa 1fbd 2595 8fbd 9e91 adba
00000080: 549d b33d cd42 3c3e ea54 7dbd f894 ac3d
00000090: 21fb abbb 6578 97bd ac0e eabd e469 b93c
000000a0: 07fd dbbd 27e4 89be 1af9 593d cbb9 8dbd
000000b0: 5207 bebb e832 be3d 3277 39be 4922 89bd
000000c0: 64cb 183e 6a31 243e cd7b 88be 0128 173e
000000d0: d7aa 843c fa72 ba3d 8f06 b5bd 98a7 92bd
000000e0: e6de 15be 51bc 6bbe dd4d d5bd feab 9b3d
000000f0: af82 373e abb8 2a3e 9410 c0bd 4412 263e
00000100: c12e b8bd cb99 fabd 34d5 f5bc 3119 b63c
00000110: fe9c a93d ec07 80bc 69e8 a03d 5004 003e
00000120: 9b02 fc3b 74ce d33d 5eca 3e3e 78b1 bdbd
00000130: cbba 8cbd c25d 69bd d04e 273e 9cf7 3a3d
00000140: d7a7 b9bd 1f29 113d f935 dbbd 11d3 4dbe
00000150: 1f43 c03c 73c4 483c 62aa 3abd 0129 1f3e
00000160: f926 87bd 4d07 013e 09a4 80be b9a5 bdbd
00000170: aa75 44bd 8b3b 9f3d c5d6 c4bd e093 c43d
00000180: d6ad 20be 8012 ebbd b701 253e ed55 38be
00000190: 241f 643c f1f1 253d c76c 90bb 0e6b 973d
000001a0: b3fa ddbd 9066 b13d b9ab 9c3c 9e54 633e
000001b0: 9092 03be 85d4 a63d ad38 34bd c597 cbbd
000001c0: 0f22 c0bd 643c a63c 9086 9c3d 82ff 08bd
000001d0: e912 90bc ec4f 19bc f1fc abbd 6cfa d43d
000001e0: b003 e7bd 6122 d03d 98b3 ab3b 35e1 89bb
000001f0: d1f9 373e d97f 5fbe cbce 233e 1472 b6bd
00000200: f012 3ebd 1348 913d 2159 28bc a707 e33d
00000210: d2b7 1f3e d51d d6bd 999f a4b9 bfb0 ed3d
00000220: a721 3d3e 0277 0b3e 8e5b a33d d922 8dbd
00000230: 2233 99bd ae30 b23c 49d8 06bd 6a31 01be
00000240: 89db a43d 2295 e83d bcf4 bd3d 9a07 b0bd
00000250: 1d8d 2cbd c297 64be 6cbd babb 6657 393d
00000260: b30b 683d 86b4 b43c 4877 40be 32d4 babd
00000270: 4bf2 a8bc 51f6 34bd 180e b5bd 437f 6d3d
00000280: 036f 2d3c f2c9 84bb 8d64 8c3c 4562 8e3d
00000290: 5106 68be d99e c2bd 2f43 a2bd 6e6a a93d
000002a0: e69b f53d b138 653d 3d8b dcb9 86a4 b0bc
000002b0: 7aa5 1ebc 59da 243e c786 10bd 1dff ec3d
000002c0: e371 293b 54e4 8f3d 2d25 1b3e 1cb7 48bd
000002d0: 8d68 08bd df80 76bd 1f0a 063e c311 fcbd
000002e0: a129 85be 60a3 2fbc ba46 2fbe b066 c83d
000002f0: 08ce d5bd c0db 363e b71a 203e 55d2 2d3e
00000300: 436d 5bbd d92c f23c bc30 123e 0925 303d
00000310: 0d41 abbd 69fb e33b 75dc eb3c 9f1a 22be
00000320: 5fc3 1abd 47f4 a9bc 20ca 8f3d 1093 ab3d
00000330: 6b77 453d af14 7cbc 698f 1d3e 78f8 7f3d
00000340: 85ed bbbd a955 a1bc 2149 30bd e522 043e
00000350: 1ff9 c039 a570 593e 477c 83bb 488c d7bd
00000360: d63b aabd 45b8 ed3d bb28 0a3e aa7a 1c3e
00000370: b74f 873d 495d 68bc c1aa 12be 69db 0cbe
00000380: 9e4e b23d 9e9b 993d 6b60 0a3e 2cf0 90bc
00000390: c0ca c23c 2cc7 0c3e a618 9b3d 76cd d3bc
000003a0: 195c 873c 8c43 bf3d a0df 083c dec2 073e
000003b0: 015e 363d 263b ac3d 2828 b2bb 3103 abbd
000003c0: a4c5 413d 7e12 00be 30c1 583d 5d53 79bd
000003d0: 7b69 f7bd 6edf 833c e9eb fa3c 75cd 1c3e
000003e0: 0ebc 1dbd f6d4 213e 23cd b8bc c9f5 2abd
000003f0: f12e 6a3d dd15 54bd f693 dc3a 50ef 483d
0.0012460522 -0.078031436 0.018487865 0.16591197 0.19587307 -0.043093514 0.02944921 -0.17627317
0.12298779 -0.12723099 -0.09462647 0.06384385 -0.09314902 -0.03531566 -0.13508214 0.0036969152
0.20413187 0.15686677 0.00027766527 -0.15713497 0.12434329 -0.16142216 -0.11825074 0.11320963
0.059854113 -0.014737495 0.13015226 0.11284156 0.09558409 -0.039056856 -0.07010869 -0.001324225
0.08770242 0.18384857 -0.06184856 0.08426851 -0.0052484428 -0.0739601 -0.1142858 0.0226335
-0.107416205 -0.2693188 0.053216077 -0.06920203 -0.0057992125 0.09287053 -0.18111876 -0.066959925
0.14921337 0.16034475 -0.26656953 0.14761354 0.016194744 0.09103961 -0.088391416 -0.07160872
-0.1463581 -0.23021056 -0.10415242 0.07601164 0.17920946 0.16672008 -0.09378162 0.16217905
-0.089932926 -0.12236365 -0.03000889 0.02222881 0.08281897 -0.015628777 0.07856829 0.12501645
0.0076907403 0.10342112 0.18631884 -0.09262365 -0.068715654 -0.05697418 0.16338658 0.045646295
-0.09065216 0.035439607 -0.10703654 -0.20100047 0.023469506 0.012253868 -0.045572646 0.15542985
-0.0659923 0.12600441 -0.2512515 -0.09260125 -0.047963776 0.07775029 -0.096112765 0.095985174
-0.15691313 -0.11478138 0.16113935 -0.18001528 0.01392344 0.040513936 -0.0044074985 0.07393466
-0.10838833 0.0866214 0.019124852 0.22200248 -0.12848878 0.08146004 -0.043999363 -0.09941057
-0.09381496 0.020292468 0.07642853 -0.033446796 -0.017587142 -0.009357434 -0.08397854 0.10399327
-0.1128 0.10162807 0.005239915 -0.004207755 0.17966391 -0.21826114 0.15996854 -0.089084774
-0.04640478 0.07093825 -0.010275156 0.11085444 0.15597466 -0.10454909 -0.00031399427 0.11605977
0.18469869 0.13619617 0.07976447 -0.06891412 -0.07480456 0.021751728 -0.03292111 -0.12616506
0.080496855 0.1135657 0.09275195 -0.085952 -0.042126764 -0.22323516 -0.0056988504 0.045249365
0.056651782 0.022058737 -0.18795502 -0.09122504 -0.020623347 -0.044180218 -0.08840579 0.057982694
0.010585549 -0.004052394 0.01713779 0.06952337 -0.2265866 -0.09502954 -0.079229705 0.08272253
0.11992626 0.05596227 -0.0004206541 -0.021562826 -0.009683007 0.16098918 -0.035284784 0.115720965
0.0025855235 0.07025972 0.151509 -0.04900275 -0.033302832 -0.060181495 0.13089798 -0.12308075
-0.26008323 -0.010720104 -0.17116824 0.09785211 -0.10439688 0.17857265 0.15635191 0.16974767
-0.053570997 0.0295624 0.14276403 0.04300407 -0.08362017 0.0069574607 0.028791646 -0.15830468
-0.037783977 -0.020746363 0.07020974 0.08377659 0.04820959 -0.015385791 0.15386738 0.062492818
-0.09176163 -0.019694166 -0.04303849 0.12903936 0.00036806703 0.21234377 -0.0040126177 -0.105248034
-0.08312194 0.11607412 0.134921 0.15281168 0.06607001 -0.014182397 -0.1432295 -0.13755573
0.08706401 0.07500385 0.13513343 -0.017692648 0.02377832 0.13747853 0.07573061 -0.025854807
0.016523408 0.093390554 0.008354098 0.1325793 0.044523243 0.08409719 -0.005436916 -0.08350218
0.047307625 -0.12507054 0.052918613 -0.060870517 -0.12080666 0.01609775 0.030630069 0.1531275
-0.03850942 0.15803894 -0.022558754 -0.041738305 0.057173673 -0.051778663 0.0016828764 0.04905635

fc3.bias f4 [21]
00000000: 0370 c03d 8f35 993d 3cd4 9b3d a640 463c
00000010: 407a 82bc c45b 8c3c 78a2 e73b e5c9 423d
00000020: 62fa f7bb 8956 183d 0603 f43c a5c1 fbbc
00000030: 49f2 9d3c ca03 0cbc b39d 23bd 9e3d a63d
00000040: d031 323c 63d9 94bc 63f2 b23d e22d 103d
00000050: 1123 423d
0.093963645 0.074809186 0.0760884 0.012100374 -0.015927434 0.017133601 0.0070689283 0.047555823
-0.0075676898 0.0371919 0.029786598 -0.030731985 0.01928057 -0.008545825 -0.039945316 0.08117221
0.010876134 -0.018170064 0.08737638 0.035200007 0.047396723
